gesture_recognizer.tflite (tflite, 67092 bytes, 6 tensors)

arith.constant f4 [37, 64]
000000 18 25 04 3e 58 37 08 be 47 4a 8c be e5 b0 cf bc
       0.12904775 -0.13302362 -0.2740042 -0.025352905
000010 ca c2 c0 be 96 53 3e bd e5 1e 2b 3e de e9 b4 3d
       -0.37648612 -0.046466433 0.16711004 0.08833669
000020 2e f7 b4 bd f8 cf e9 bd a8 e3 6f 3d b4 2c 85 bd
       -0.08836208 -0.1141662 0.05856672 -0.06502667
000030 5c ad 83 be 3e 8d b0 bd fe 68 0c 3e b4 83 f8 bd
       -0.257182 -0.0862069 0.13711926 -0.121344954
000040 b4 17 90 be ce cf 92 be a7 2c 68 be 82 5f 6d 3b
       -0.28143084 -0.28674167 -0.22673284 0.0036220257
000050 14 47 40 3e f9 d0 5a be 53 9f 00 be 36 55 37 be
       0.18777114 -0.21368779 -0.12560777 -0.17903599
000060 02 cf 79 3e dd c7 e9 be aa 32 31 bc ca a8 5c be
       0.24395373 -0.45660296 -0.010815302 -0.21548763
000070 6c 37 c8 3d ac f9 0e be 6a fa 85 3e de 99 63 be
       0.09776196 -0.1396243 0.26167613 -0.22226664
000080 4a b0 4a 3d 37 53 a1 be 2b cd 69 be db 61 f2 3c
       0.04948453 -0.315088 -0.22832172 0.029587677
000090 3e 28 c9 3c 34 2c ca bc 32 60 32 be ad 99 03 bd
       0.024555322 -0.02467928 -0.17419508 -0.03212898
0000a0 a4 4e 08 3e 16 b9 28 bc 15 0f 14 3e c7 4f bc 3d
       0.13311249 -0.010298034 0.14458878 0.09194904
0000b0 bd 7b a3 3e e3 7c 44 3e 9f 8d 50 be 9f 4a 09 be
       0.31930342 0.19188266 -0.20366524 -0.13407372
0000c0 fa 0e 04 bd 0a b2 37 3e 94 49 11 3c e9 d0 18 3e
       -0.032240845 0.1793901 0.00886764 0.14923443
0000d0 66 59 a8 3d 34 a2 2d bd 60 16 03 3d db 73 27 be
       0.082201764 -0.042391017 0.03200376 -0.16352789
0000e0 17 70 00 be bd d8 a2 be 53 2a 1c be 64 a8 41 3d
       -0.12542759 -0.31805983 -0.1525052 0.04727973
0000f0 5b 7e 17 be 04 24 96 be 00 af ad be 2d 0e 94 bd
       -0.14794295 -0.29324353 -0.33922577 -0.07229266
000100 41 f8 ab 3e e3 00 28 bf 70 5a 08 be 04 91 1b 3e
       0.3358784 -0.65626353 -0.13315749 0.15192038
000110 58 b6 77 3e 5d 41 8b 3d 0d 53 84 bd ee 12 02 3e
       0.24190652 0.067995764 -0.06461153 0.12702534
000120 08 25 e6 3d 90 80 d8 3b 67 3a fd be d3 07 11 bd
       0.11237532 0.0066071227 -0.4945862 -0.035407852
000130 c5 ad c2 be 7a 7b 31 be 90 17 6b 3d 5a 98 3f 3e
       -0.380232 -0.17332259 0.057395518 0.18710461
000140 2b 20 03 3b ec bd e4 be b8 f5 b7 be 30 c3 1e bc
       0.0020008187 -0.4467615 -0.35929656 -0.009690091
000150 74 38 09 be 8e f1 2f 3d 4f 8f 4a 3e cf ff e7 be
       -0.13400441 0.042954974 0.1978123 -0.45312354
000160 82 94 1c 3e 73 40 20 3e 8a 34 27 be 30 23 9f be
       0.15291026 0.15649585 -0.16328636 -0.31081533
000170 1c 81 08 bf 7e d6 3d be 71 4a 26 bc a2 c6 ac 3d
       -0.53322005 -0.18538854 -0.010149584 0.08436324
000180 bf 5e be 3e 42 d2 b8 be 63 8a 96 bd 73 31 3e be
       0.3718166 -0.36097914 -0.07350614 -0.18573551
000190 ca 6c 10 3d 66 3d 77 be 25 11 53 3e 7b 73 a7 bd
       0.03526 -0.24144515 0.20612009 -0.08176323
0001a0 47 fd 9e 3e ab 83 fd bd 2a eb 54 be db f2 e4 be
       0.3105261 -0.12378629 -0.20792833 -0.44716534
0001b0 d4 aa d0 bc da 25 52 3c a1 71 02 3e b6 df 62 be
       -0.025472082 0.012826407 0.12738658 -0.22155651
0001c0 79 d6 8c 3d 8c fc 98 3e 17 a2 b2 3d ad 89 d7 be
       0.06876845 0.29880178 0.087223224 -0.42097226
0001d0 95 1e 28 be df ca bf bd c8 0f 95 bd 55 1f 88 bd
       -0.16417916 -0.093648665 -0.07278401 -0.06646601
0001e0 d5 f1 0e 3e fa c1 c1 3d a3 b4 1d 3d 31 a2 54 3e
       0.13959439 0.09460826 0.038502347 0.20764996
0001f0 f2 87 b5 be be be 59 bc a2 32 88 be af d1 2f 3e
       -0.3545528 -0.013290105 -0.2660113 0.17169832
000200 b2 a1 c7 bd 94 e3 7b be eb 2c 3c 3e 0a f2 49 bd
       -0.09747638 -0.24598533 0.1837651 -0.049303092
000210 47 fb 15 be 74 1a 5e 3e 2f 45 47 be 73 36 00 be
       -0.14646636 0.21689779 -0.19459985 -0.1252077
000220 b5 c0 21 bd 34 89 08 be 99 71 09 bf 8a 3f 8f 3d
       -0.03949042 -0.13333589 -0.5368896 0.06994541
000230 7b b2 f1 3b 9d 7f 03 3e 0e 0f 7a 3e a4 7d f2 3d
       0.007376013 0.1284165 0.24419805 0.1184037
000240 46 e3 f7 bc 96 9b d5 3d c9 21 40 bd ac 66 6c be
       -0.03025974 0.10430066 -0.04690722 -0.23086041
000250 6b 31 b3 be ab 16 0e be b9 76 18 3e 2f 34 07 3e
       -0.3499864 -0.13875835 0.14889039 0.132035
000260 4b d8 24 3e f5 b9 0f be 49 6a c2 be bd a2 04 bf
       0.16098134 -0.1403578 -0.37971714 -0.5181082
000270 c0 dc a7 be 5b 57 33 bd ba 64 c8 be c2 5b 91 be
       -0.32785606 -0.04378448 -0.39139348 -0.28390318
000280 12 94 ae bd b0 c3 89 bb 02 86 cc 3c f2 b0 77 3e
       -0.08524336 -0.004204236 0.024966244 0.24188593
000290 03 6b 33 be 54 36 8b 3d f1 ff 74 3e 82 37 52 be
       -0.1752129 0.06797472 0.23925759 -0.20528987
0002a0 ba 95 c0 3d 50 7a f9 be 1e ae 40 3e 6c 56 ba 3d
       0.09403558 -0.4872613 0.1881642 0.09098515
0002b0 9a 38 43 3d 8d 1b 9b 3e 27 74 6c 3e 71 ee c4 be
       0.0476614 0.30294457 0.23091184 -0.38463166
0002c0 da 23 17 be af 64 85 3d 6e 0e 04 bf 8e 94 50 be
       -0.1475977 0.065133445 -0.5158452 -0.20369169
0002d0 e4 2e 0f 3e 73 10 34 3c 60 ec 39 be 0b 68 43 bc
       0.13982731 0.01099025 -0.18156576 -0.011926661
0002e0 86 09 0d 3e 92 8f 39 3e 75 86 d4 bd b2 2b 7f bd
       0.13773164 0.18121174 -0.10377208 -0.06229753
0002f0 4e 65 a9 3c dd 29 ca be 49 86 30 bd 80 60 ef 3d
       0.020678189 -0.39485064 -0.043096814 0.11688328
000300 28 22 00 3e 12 95 bd bd 44 0e aa 3e ff c8 83 be
       0.1251303 -0.092569485 0.3321401 -0.25739285
000310 c6 2b 83 be b8 ce 81 3e 87 28 8c 3e 39 8e 2b 3e
       -0.25619334 0.25353026 0.2737467 0.16753472
000320 88 42 83 3d 40 d4 ed bd 11 90 81 be ca 21 26 3e
       0.06409174 -0.11612749 -0.25305226 0.16223827
000330 8d 30 d1 3e 72 c0 e1 bd 70 b4 1c 3d ac 0a 8a 3d
       0.40857354 -0.11023034 0.038258016 0.06740317
000340 d4 43 1e bd 1c 43 d4 be 16 ec c4 3e 17 50 65 be
       -0.038638905 -0.4145745 0.3846137 -0.22393833
000350 89 99 8e bb e1 4e 2d 3d 8f 72 47 be 21 9c e7 bd
       -0.004351799 0.042311553 -0.19477294 -0.11309076
000360 ba ac ae 3d d9 18 a7 be 58 93 a0 3e f7 4d 68 be
       0.08529039 -0.32636145 0.31362414 -0.22685991
000370 e3 05 e6 3d 47 ef 2e 3e c5 cf 40 be 3e 6d a5 bd
       0.112315916 0.17083465 -0.18829258 -0.08077477
000380 36 2e ba be f5 e5 08 3e 58 9f c0 be 47 6b 79 be
       -0.3636338 0.13368972 -0.3762157 -0.2435733
000390 51 43 75 be f3 42 d0 be 26 24 ad be e2 56 88 3e
       -0.2395146 -0.40676078 -0.33816642 0.26628786
0003a0 3e 87 5a be c1 62 96 3d cb 57 16 be 22 b1 87 bd
       -0.21340653 0.073430546 -0.14681928 -0.06625582
0003b0 82 40 be be c3 85 75 be ab 49 90 3d 1c 4b 35 be
       -0.3715859 -0.23976807 0.07045301 -0.17704433
0003c0 d6 01 b4 be 0d 2e 45 3d e0 66 5f bd 37 91 b6 bd
       -0.3515765 0.04813962 -0.05454147 -0.08914416
0003d0 10 a2 01 be e5 a4 03 bf fb 4a 91 3e f7 01 38 be
       -0.12659478 -0.51423484 0.28377518 -0.179695
0003e0 ea bf 8c 3e 69 b9 9d 3c c7 67 84 be 1a 76 d4 be
       0.2749017 0.01925345 -0.25860426 -0.41496354
0003f0 21 61 ae bc 32 d6 3c bd 8b 68 01 bd 7e 71 b5 3d
       -0.021286549 -0.04610271 -0.03159384 0.088595375

arith.constant1 f4 [64, 128]
000000 4f 9e 22 3d d2 9b 9f 3e a5 c4 51 3d d8 ea 22 3e
       0.039701756 0.3117357 0.051212925 0.15909898
000010 c3 2c d8 3c 11 3a d5 bc 01 38 0e 3e 09 6b a5 bd
       0.026388532 -0.026028665 0.13888551 -0.08077056
000020 c9 58 c5 3d 61 ed cb bd bb aa 77 3d e6 4f 69 3e
       0.09636075 -0.09957386 0.060465556 0.22784385
000030 a2 11 93 3d 00 ef 07 3e 27 50 53 bd 03 26 72 be
       0.071810976 0.13274765 -0.05159011 -0.23647313
000040 20 0f ac 3d 55 da 94 3d 81 45 76 3e 94 7f 4e 3d
       0.08401322 0.07268206 0.24049951 0.050414637
000050 2b d6 74 be 73 8a a9 3e 54 fe d2 3d e4 3a 56 3e
       -0.23909824 0.3311344 0.103024155 0.20920902
000060 9d da 23 3d f9 ce 7a 3e 0c 56 1b 3d 3f 14 cd 39
       0.040003408 0.24493016 0.037923858 0.00039115731
000070 6f c4 87 3e 07 0e 53 3e 07 d9 4f 3d 5a af a4 3e
       0.26517054 0.2061082 0.050744083 0.32165033
000080 fb 62 a9 be 80 92 4e 3e 56 a8 59 3c 92 9f ef 3d
       -0.3308333 0.20173073 0.013284763 0.117003575
000090 2f cf db bd 20 55 d5 bd 76 ef 5f bd da dc 89 3d
       -0.107328765 -0.10416627 -0.054671727 0.06731577
0000a0 72 9f f3 3d fa 1c 45 be b3 4f 5b be c0 0b 02 3d
       0.11895646 -0.19249335 -0.21417122 0.031749487
0000b0 ac cb 2e 3d b6 2f 02 be b6 8d d7 bd de 14 78 be
       0.042674705 -0.12713513 -0.10525076 -0.2422671
0000c0 7f 7c 9c bd 1e ec 4b 3e 9c b7 08 3e c8 91 6c bc
       -0.07640933 0.1991429 0.13351291 -0.014439054
0000d0 38 9a 7f 3d 46 de 95 be 0e 9c a6 3c b5 f8 6b 3b
       0.062402934 -0.29271144 0.020338085 0.0036006395
0000e0 11 3d be 3d 6a 6b 4e 3e a7 31 38 3e b9 11 e9 3d
       0.09288991 0.20158163 0.17987691 0.113803335
0000f0 c0 37 0c be dd 74 4c 3d dd e8 3b 3e 58 ef 26 be
       -0.13693142 0.049916137 0.18350549 -0.1630224
000100 85 9e 22 be 2c 9f 89 3d 10 6d a9 3e 71 92 5f 3d
       -0.15880783 0.06719813 0.3309102 0.054583017
000110 f6 2d 94 bd 8b a2 d4 bd 83 cd 5f 3d 05 61 94 bd
       -0.07235329 -0.10382565 0.05463935 -0.072450675
000120 4f 38 2a 3e 2b 9e 4f 3d 8f 4b 19 be 9d 17 0a bd
       0.16623043 0.05068795 -0.1497023 -0.033713926
000130 a1 32 35 3c 46 57 d8 3e 76 b4 dc bc d6 c4 34 3e
       0.011059434 0.42254084 -0.02694152 0.17653212
000140 b9 fc 04 3d f6 1d 14 bd de bb 07 3d 9d c2 29 3e
       0.032467578 -0.036161385 0.03313815 0.16578145
000150 c4 5f 1f bd bd 6f ad bd 0c 04 78 3c 48 4d 7e 3e
       -0.03890969 -0.08468578 0.015137684 0.24834168
000160 04 08 2a bd ca 20 31 3b 15 0c 99 3e 59 f8 f7 3c
       -0.04151155 0.00270276 0.2989203 0.030269789
000170 c1 b5 74 bd ec 19 10 3e 30 e5 a6 bd 55 cc ed 3d
       -0.059743647 0.14072388 -0.08149183 0.11611239
000180 cc 90 80 3e 74 57 7a 3e 64 c5 32 3e aa 8e e2 bd
       0.2511047 0.24447423 0.17458111 -0.11062367
000190 ee 91 a8 3b f9 b1 f7 3d 69 a3 ad bc 15 85 ac 3d
       0.0051443493 0.120944925 -0.021196084 0.08423821
0001a0 3d 65 ea 3d 5a d3 14 3e 53 25 12 bc 96 89 14 3e
       0.11445091 0.14533749 -0.008920032 0.1450561
0001b0 c8 30 39 3e 47 ce e7 3c 8e 1e aa bc 7f 3b 78 bd
       0.18085015 0.028296603 -0.020766523 -0.060603615
0001c0 de 9b f0 3d 55 90 26 bd 5c e3 13 be 47 cb a6 bd
       0.11748479 -0.04066499 -0.144422 -0.08144241
0001d0 0b b9 95 be 57 62 ee 3d 8a 8e 7a 3d f7 91 11 bd
       -0.2924274 0.116398506 0.061171092 -0.035539594
0001e0 06 dd 91 3e f8 02 7b 3d a6 79 a3 3e c8 ae 41 3e
       0.2848894 0.061282128 0.31928748 0.1891433
0001f0 0b a4 ad 3d 13 25 1a bd 4f 96 53 3e 5f 87 08 3d
       0.08478554 -0.037633013 0.20662807 0.033332225
000200 e6 73 12 3c 7a 14 50 be 12 f5 7e 3e 6b 58 81 3e
       0.008938765 -0.20320311 0.24898174 0.2526277
000210 cd 80 ce bd 5e 82 37 3d 93 a4 80 3e bb 3c 64 3e
       -0.100831605 0.044802062 0.2512556 0.22288792
000220 4d a7 5a 3e b8 4f 40 3d 1a 68 15 3e 55 9d 3c be
       0.21352883 0.046951026 0.14590493 -0.18419392
000230 4f 0f 6b 3d c3 70 9b bd 2b f8 9b 3d 79 a6 fe 3c
       0.057387646 -0.07589867 0.07615694 0.03108524
000240 66 b7 cc 3d 21 2f 57 bd df 56 85 bd 25 7e 57 bc
       0.09995918 -0.05253518 -0.0651071 -0.013152634
000250 99 92 57 3e 1d 73 0d 3e 2a 87 b8 3d 91 8a a4 bd
       0.21052016 0.13813443 0.090101555 -0.08034242
000260 92 f1 4f 3e 33 5b 27 be 6e 62 be bd 92 db ae 3d
       0.20306996 -0.16343383 -0.09296118 0.085379735
000270 d7 36 7c 3e cc 66 11 bd 64 26 72 bd 1a 14 2c 3e
       0.24630295 -0.035498425 -0.059118643 0.16804543
000280 cf 55 33 3e 86 32 f4 bd c5 56 f9 bd c9 36 82 be
       0.17513202 -0.11923699 -0.12174753 -0.25432423
000290 bf 85 59 bd dd f9 98 3d 2d 6c b3 bd e2 7c 61 3d
       -0.053106066 0.07469533 -0.08760867 0.05505074
0002a0 84 d6 09 be fe 65 02 3e a8 79 b1 3c 4e 67 27 be
       -0.13460737 0.1273422 0.021664456 -0.16348001
0002b0 51 62 bf 3d 01 f8 d1 bc 03 f8 59 3d 34 e1 27 3e
       0.09344924 -0.025630953 0.053215038 0.16394502
0002c0 3e 3d 49 be 59 55 89 bd 78 96 f8 3d d8 58 8e bd
       -0.19652268 -0.06705732 0.12138075 -0.06950539
0002d0 95 04 48 3e b1 b0 4d bd 6e 78 1d be 89 fd f2 3d
       0.19532998 -0.050217334 -0.15377972 0.11864764
0002e0 28 25 16 be 87 a9 bb bc d4 5f 20 be 05 ea 19 3d
       -0.14662611 -0.022907985 -0.15661556 0.037576694
0002f0 24 3a 8b 3d 38 d4 80 bd c5 25 06 3b 41 4a 41 3e
       0.06798199 -0.062904775 0.002046929 0.18875982
000300 12 16 49 3d d0 b5 d2 bc b9 31 a8 be d4 47 ba bd
       0.049093314 -0.02572146 -0.32850435 -0.090957314
000310 9b 78 01 bd 53 9e 90 3d 10 82 bb 3d dc d9 18 3e
       -0.03160916 0.07061448 0.09155667 0.14926857
000320 91 4f 62 3e 1c 7d 7c bd 4d 67 25 3e 52 db 15 3e
       0.22100665 -0.06164275 0.16152687 0.14634445
000330 b3 f5 9e be 25 ee a9 3d 2c e5 f6 bc 56 fe 0e 3d
       -0.3104683 0.082973756 -0.030138575 0.034910522
000340 78 09 25 bd fe d8 8f 3e c6 23 be 3d 9f 5b 50 be
       -0.040292233 0.2809524 0.09284167 -0.2034745
000350 7e 18 a7 3d 1c a2 c1 bd 05 04 2d 3d 49 42 8f 3d
       0.081589684 -0.09454748 0.04224016 0.06995065
000360 76 59 24 3e 19 47 4a 3e e8 f8 44 be 15 f8 d5 bd
       0.16049752 0.19753684 -0.19235575 -0.104477085
000370 d6 5a 55 3e 99 fa 34 be ac 70 50 3e f0 69 3d 3e
       0.20835432 -0.1767372 0.20355481 0.18497443
000380 8f 0a 9e bc 1c 20 21 3e 84 b5 ab bd 64 0c 93 bd
       -0.019292144 0.15734905 -0.08384231 -0.07180098
000390 3d 22 eb 3d d4 ec 28 be 59 55 80 3e 49 75 88 3e
       0.1148114 -0.16496593 0.25065115 0.2665198
0003a0 a0 9a ac 3d 94 de 82 3e 5d f8 a6 bd 20 c7 04 3e
       0.0842793 0.2556044 -0.0815284 0.12966585
0003b0 ef 24 3f bd d1 07 30 be 9e 75 22 3e 03 53 7f 3e
       -0.046666082 -0.17190482 0.1586518 0.2493401
0003c0 74 0d d5 bd b2 d7 e8 bd f9 66 15 3e 2b bd d8 3c
       -0.104029566 -0.113692656 0.14590062 0.02645739
0003d0 0c 1b 95 bc 46 be 3a bd 50 9b 0d 3e f5 a9 16 3e
       -0.018201374 -0.045591615 0.13828778 0.14713271
0003e0 fa 43 16 be a8 99 93 bd 9f 41 c0 3d 82 9a b0 bc
       -0.14674369 -0.07207042 0.09387516 -0.02155805
0003f0 45 9d b8 bd 85 a5 2d 3e 56 56 03 3d d4 c7 20 3d
       -0.09014372 0.16957672 0.03206476 0.03925307

arith.constant2 f4 [37]
000000 85 e1 76 bd 75 08 30 3c 06 e1 8a bd eb 5e 89 3d
       -0.060273666 0.010744204 -0.06781201 0.06707557
000010 fa cd fd 3c ed 2e ef bd 4b 1b 14 3d bf f1 b2 bc
       0.030982006 -0.11678872 0.03615884 -0.02184379
000020 9d 0b 12 bd 31 62 24 3b 79 ac a8 3d eb 40 17 bc
       -0.035655607 0.002508294 0.082360215 -0.009231786
000030 74 20 04 bd ba 0a bc 3d 92 62 78 3c cc be 00 bd
       -0.032257512 0.091817334 0.01516022 -0.031431958
000040 16 77 da 3c 31 fe a5 bd 22 0a 11 bc 90 5b eb bd
       0.026668113 -0.08105124 -0.0088525135 -0.114920735
000050 bf 0b 49 bb fb 4b b3 bd 62 be 8d bd 2b da cb bc
       -0.0030677167 -0.087547265 -0.06921078 -0.024884304
000060 8c c9 d5 bd 1e 84 1a 3e f8 c1 06 bd 39 8a 06 be
       -0.10438833 0.15089461 -0.032899827 -0.13138665
000070 d3 3a a1 3d f1 8c eb bb 02 34 50 b9 b5 ec d6 3d
       0.07872548 -0.0071884324 -0.000198558 0.10494367
000080 9c 75 5c 3d 20 70 93 3c eb 0d 70 3d 8c b4 39 bd
       0.0538231 0.017997801 0.058607023 -0.0453382
000090 c5 22 38 3a
       0.0007024224

arith.constant3 f4 [64]
000000 96 a3 c8 3c 99 f2 d8 3d 5a 27 4e bd 0e fd 1d bd
       0.024492066 0.10593147 -0.050330497 -0.03857141
000010 5d 49 18 3e 5c ea 59 3c a8 a4 99 3d 66 ef e5 3d
       0.14871736 0.013300505 0.07502109 0.11227302
000020 61 3a c4 3d c6 32 8f bd 2a 5c ce bc ae 28 cd 3c
       0.095814474 -0.06992106 -0.025190432 0.025043812
000030 f1 74 93 3d 94 17 02 3d 36 86 a1 3d 51 f2 3d 3e
       0.07200039 0.031760767 0.07886927 0.18549468
000040 28 9e 12 bc de 6d 20 3e 23 2e d9 3d 9f 29 04 3d
       -0.00894884 0.15666911 0.10604503 0.032266255
000050 d4 a7 25 3e 47 97 3a 3d cc 75 0e 3e 97 d6 f6 3d
       0.16177303 0.045554426 0.13912123 0.120526485
000060 fb a6 7b 3d 04 7a 29 3d 3d f2 cf 3c 82 a3 62 3d
       0.06143854 0.04137613 0.025384063 0.055331714
000070 c2 2a ac 3d 63 a8 7c 3d fe f3 0c 3d 34 3b 4c 3e
       0.08406593 0.061684024 0.034412377 0.19944459
000080 e1 08 84 3d dc 13 12 bd e7 90 f5 3d 24 53 28 3d
       0.06447006 -0.03566347 0.119905286 0.041094914
000090 cc 0d 40 3e 94 05 cd 3c 58 f7 bc bc db 35 9d 3d
       0.18755263 0.025027074 -0.023067161 0.07676288
0000a0 49 9b 08 3d c2 b1 a6 3d 2d 63 92 bc 0b ba 84 3d
       0.033351216 0.08139373 -0.017869556 0.064807974
0000b0 30 b8 8c 3d d0 92 a7 3d 03 db 5c 3d 05 92 ca 3d
       0.068710685 0.08182299 0.053919803 0.09891132
0000c0 15 b9 bd 3b c7 7e 00 3e d8 d0 ae 3d e3 10 8a 3d
       0.0057898858 0.12548362 0.085359275 0.06741502
0000d0 98 31 c7 3c 1f 3f 9b 3d 2e 1f d5 3d cf d1 83 3d
       0.02431564 0.07580399 0.10406338 0.06436502
0000e0 99 e4 9e bd 5e 32 ce 3d e5 7e 28 3d 7e 49 3f bc
       -0.07758445 0.100682005 0.04113664 -0.011675237
0000f0 63 c9 1a 3d 50 09 0c 3d c2 73 c0 3d ef 58 1f 3d
       0.037789714 0.03418857 0.09397079 0.038903173

sequential_2_1/dense_6_1/MatMul;sequential_2_1/dense_6_1/Relu;sequential_2_1/dense_6_1/BiasAdd f4 [128]
000000 aa 6a e4 3f fb b7 41 40 24 4c bc 3f c7 9b 93 40
       1.7845051 3.0268543 1.4710736 4.612766
000010 11 36 07 bf d7 fb 87 3f c7 8e 4e bf c0 76 25 c0
       -0.52816874 1.062373 -0.8068661 -2.585373
000020 28 09 1f c0 cb 5e 49 3f 05 f4 6d c0 ac 39 23 bf
       -2.4849339 0.7866027 -3.7180188 -0.63759875
000030 6c 2f 4b 3f 84 a5 29 c1 19 1e 2c c0 38 b8 98 3f
       0.79369235 -10.602909 -2.689337 1.1931219
000040 cc 70 9d 3e 1e 66 2b 40 b0 e9 19 40 7e 95 e8 bf
       0.3075012 2.6781077 2.4048882 -1.8170621
000050 e5 0c 3c bf aa cb 82 40 64 d6 1e c1 74 2b 08 c1
       -0.73457175 4.0873613 -9.927341 -8.510609
000060 f0 77 94 40 0e 97 b6 c0 7a 4b b3 c0 2c 25 e3 bd
       4.639641 -5.7059393 -5.6029634 -0.11091074
000070 f5 01 f9 3f 46 83 8b bf 9f b1 d4 c0 a5 26 96 bd
       1.9453722 -1.0899436 -6.6466823 -0.073315896
000080 b2 5d d8 3f 5e 8c 9c 3e cc 6e 30 40 e4 77 6f 40
       1.6903594 0.30575842 2.7567625 3.7416925
000090 f5 65 e1 3f c2 de 67 3f 48 91 36 bf 43 d7 a6 bf
       1.760924 0.90574276 -0.7131543 -1.3034443
0000a0 9f 69 23 c0 90 27 ea 3f d7 b5 8c 40 ca db 12 40
       -2.5533216 1.8293324 4.3971972 2.2946649
0000b0 2b 9b 73 c0 d5 22 0a 41 e0 f4 ab bf ce 08 57 bf
       -3.8063457 8.633504 -1.3434105 -0.8399781
0000c0 23 6c 31 40 dd e2 54 3f 3b 3e e0 3f f5 d8 41 3f
       2.7722251 0.83158666 1.7518991 0.75721675
0000d0 4f e4 37 40 23 5b 85 40 7c 77 aa 3f 51 49 14 3f
       2.8733099 4.167375 1.3317714 0.5792437
0000e0 a9 80 ac 3f bf b7 b6 3f ee 52 17 be b2 f0 9b 3f
       1.3476764 1.4274825 -0.14777729 1.2182829
0000f0 1b 2c 13 c0 88 a5 b5 3f d9 8f e8 bf f3 68 7e bf
       -2.299567 1.4191141 -1.8168899 -0.9937889
000100 5b 98 07 3f b7 47 8f c0 15 bc a3 be c9 85 8a 3f
       0.5296685 -4.4775043 -0.31979433 1.0822078
000110 51 9d 59 40 d3 84 61 bf f7 1a 6d 40 93 73 b2 c0
       3.4002268 -0.880933 3.7047708 -5.576608
000120 52 90 d0 bf 60 fd 0a 41 56 c3 53 c0 58 9f 2d c1
       -1.6294043 8.686859 -3.3087974 -10.851402
000130 62 34 65 40 66 11 b0 3f b1 69 1b c0 16 61 2a 3f
       3.5813222 1.375531 -2.428326 0.6655439
000140 5a fb c1 bf 95 30 56 c0 67 05 26 3f 5f ae c2 40
       -1.5154831 -3.3467152 0.64851993 6.0837855
000150 7f 30 89 c0 68 0f a7 c0 76 c3 12 40 b8 a7 ec c0
       -4.28717 -5.2206306 2.29318 -7.3954735
000160 6e 8b 1a c0 1d 64 18 3f 04 42 18 c0 d9 06 9d 3f
       -2.41476 0.5952776 -2.3790293 1.2267715
000170 c8 0e 4f 3f 08 51 4e bf c0 cc a1 c0 28 2b a4 40
       0.8088193 -0.80592394 -5.056244 5.130268
000180 08 57 2a bf e5 b6 18 40 46 79 14 3f 18 da 2c c0
       -0.6653905 2.386163 0.5799755 -2.7008114
000190 ab 67 30 c0 bd 07 de 40 53 d4 9a 3f 17 59 c0 3e
       -2.7563274 6.9384446 1.2096046 0.3756797
0001a0 a3 d1 00 c0 1d c9 1f 40 81 27 2a c0 48 e7 9d be
       -2.0127952 2.49665 -2.6586611 -0.30840516
0001b0 0d 16 15 40 f8 8d 04 40 32 e2 94 bd 12 b6 d3 bf
       2.3294709 2.071165 -0.07269706 -1.6539938
0001c0 63 16 14 40 a6 56 1a c0 36 c6 28 40 3c b1 7b c0
       2.3138664 -2.4115386 2.6370978 -3.9326925
0001d0 9e ff bf 3f 54 45 5a bf 7b c1 ea bf 88 bb 54 3e
       1.4999883 -0.85262036 -1.8340296 0.20774662
0001e0 62 64 86 c0 93 ac 24 bf cd 65 b2 bf 3f 5f d8 c0
       -4.1997538 -0.6432583 -1.3937317 -6.7616267
0001f0 dc 00 bc 40 cb 81 cb c0 ad 23 88 bf f4 19 9f 3f
       5.875105 -6.359594 -1.0635887 1.2429795

sequential_2_1/batch_normalization_1/batchnorm/mul_1;sequential_2_1/batch_normalization_1/batchnorm/add_1;sequential_2_1/dense_6_1/MatMul;sequential_2_1/dense_6_1/Relu;sequential_2_1/dense_6_1/BiasAdd f4 [128, 42]
000000 18 f5 2b bf ed 59 02 bf ff 21 ea bf 5d 40 44 3f
       -0.6717086 -0.50918466 -1.8291625 0.7666071
000010 a7 53 ec 3d f7 3e 91 3f 83 e7 81 3e 3a 33 64 3f
       0.11539393 1.134734 0.25371942 0.89140666
000020 6c 5d 3f c0 21 27 c3 bf 2c 7c 03 40 bc 78 b5 be
       -2.990077 -1.5246316 2.0544538 -0.35443676
000030 94 28 75 3d da c4 36 40 c7 8e 3b c0 3e c7 e2 3f
       0.05985315 2.8557649 -2.9305894 1.7717054
000040 5b 8d f3 bf db b7 e4 bf ab a3 85 3e 2f f0 e0 3f
       -1.9027513 -1.7868608 0.2610143 1.7573298
000050 51 46 99 3f 70 4c 88 3e 78 ef 26 3f 45 bf 8f bf
       1.1974584 0.26620817 0.6520915 -1.1230246
000060 77 a6 07 40 67 1d f2 bf e5 28 f7 bf a8 e0 03 40
       2.1195352 -1.8915223 -1.9309355 2.060587
000070 2f 79 b8 bf 08 ab 49 3e 6b 8c a9 3f 18 f0 11 c0
       -1.4411982 0.1969415 1.3245977 -2.2802792
000080 dc 1b 23 bd 83 b9 21 c0 3d 9d e3 bf d0 7f a8 3f
       -0.03982149 -2.5269477 -1.778236 1.3164005
000090 f5 89 55 3f db 3c 0a bf 59 d0 ae 3e af 54 e8 be
       0.8341363 -0.5399911 0.34143332 -0.45377108
0000a0 23 b1 25 3f 3a 5f ca 3f 0c 92 e8 bf 1d 28 c7 bf
       0.64723414 1.5810311 -1.816957 -1.5559117
0000b0 39 0c 61 bf 9d dc 35 3f 1c 89 83 3f 53 7c 07 3e
       -0.87909275 0.71039754 1.0276217 0.1323102
0000c0 fe 4e b7 3e e7 87 ee 3d 0e 08 6e 40 d7 1f 60 3f
       0.35802454 0.11647015 3.7192416 0.87548584
0000d0 61 58 00 bf 2e 63 b1 bf 09 38 d5 bd 02 3f 46 c0
       -0.50134856 -1.3858392 -0.104110785 -3.0975957
0000e0 17 af 2f be 13 56 49 c0 a1 96 10 3f b0 1d 37 c0
       -0.17156635 -3.1458786 0.5647984 -2.861187
0000f0 0b 13 cc bf 0e 1e 5f 3f ad 43 d9 bd d8 17 9e bf
       -1.5943311 0.87155235 -0.10608611 -1.2351027
000100 27 2f a5 bf 33 7b 03 40 5c 6c ab bf 4c ae 2b 40
       -1.2905015 2.0543945 -1.3392444 2.6825132
000110 a1 7c ea bf eb ce 8e 3f d9 94 62 bd 6f f7 b2 3f
       -1.8319284 1.1156896 -0.055317733 1.3981761
000120 a7 6f 13 c0 46 ed 6d bf 5b c3 bc 3f 73 d4 3c bf
       -2.3036897 -0.92940176 1.4747118 -0.7376167
000130 a7 28 dc 3f 78 23 e7 3e 26 a4 f3 be d1 17 be 3f
       1.7199906 0.45144248 -0.47586173 1.4851018
000140 dd 3d c3 bf 3d 8e f2 be a5 0c 3a bf 7e 96 05 3d
       -1.5253254 -0.47374144 -0.72675544 0.032614224
000150 2a 76 84 3e d6 d6 61 bd 3e 5d 38 be fd 04 a5 be
       0.25871402 -0.055136524 -0.18004319 -0.32230368
000160 bf ed af bf 1f fd de be 9d cd 1c 3c 34 fd e9 be
       -1.3744429 -0.4355249 0.009570506 -0.4570099
000170 bc a3 28 40 5b 89 a1 c0 36 fd ac bf e9 56 3c 40
       2.6349936 -5.048017 -1.3514774 2.9428046
000180 b4 d4 2a bf 7a 53 40 40 8a 80 2a bf e1 d5 45 bf
       -0.6673081 3.005095 -0.66602385 -0.7727948
000190 7b aa c9 bf 54 e1 a0 be 1a 22 14 3c f3 dd 09 40
       -1.5755152 -0.31421912 0.009041334 2.1541717
0001a0 fe 86 3c 40 e9 1f 74 3e 5f c3 d8 bf f0 59 2f 3e
       2.9457393 0.23840298 -1.6934623 0.17124152
0001b0 7f 54 2d bf ba d2 b4 bf 17 ca 97 3f c5 eb fb bf
       -0.67707056 -1.4126809 1.1858548 -1.9681326
0001c0 c3 28 17 3d 27 97 2d 3f 9c 65 1d c0 7c 08 b4 3f
       0.036904108 0.67808765 -2.4593267 1.4065089
0001d0 6f 9b a8 3e d1 ec 11 40 a5 0f 23 40 7b e8 fe bf
       0.32931086 2.2800791 2.5478299 -1.9914697
0001e0 5d 3c 10 3f 6d ef 9f bd 79 3e b2 be bb 09 fe be
       0.5634211 -0.07809339 -0.34813288 -0.496168
0001f0 ea 49 8b 3f 97 a1 af 3d 26 be d9 3f b1 3d 01 3f
       1.0881932 0.08575743 1.7011154 0.5048476
000200 ae 53 d3 be 18 7e 49 bf 19 ad 5d bf 5a 06 45 c0
       -0.4127478 -0.7870803 -0.8659225 -3.0785127
000210 4d a7 c4 bf d8 6a 58 bf 83 ca 37 c0 fd 59 62 c0
       -1.5363556 -0.8453803 -2.8717353 -3.5367424
000220 a7 40 74 bf 40 c6 99 bc 91 78 1c 3f 9b e7 30 40
       -0.9541115 -0.01877129 0.6112147 2.764136
000230 89 a4 dc be 6d 70 b4 bf a7 62 04 bf 23 ec f8 bd
       -0.4309428 -1.409681 -0.5171303 -0.121544145
000240 5e 85 29 bf 9a a4 19 40 b4 b8 9f 3f aa 7b 03 bf
       -0.6621913 2.4006715 1.2478242 -0.5136057
000250 e2 da 95 3d 20 c4 1d 3e 19 ba d8 3e f4 7e 13 bf
       0.07317139 0.15406847 0.4232948 -0.5761559
000260 16 27 de 3f b3 3d e1 3f fe 5d fa be e7 af 96 3e
       1.7355678 1.7596954 -0.48899835 0.29431078
000270 ee 2b 1d bf 59 95 75 be 0d 90 17 3f c5 4b ed be
       -0.61395156 -0.23982753 0.5920418 -0.4634687
000280 d2 9b 7c 40 48 22 b5 be ab 69 ae 3e 92 70 0b 40
       3.9470105 -0.35377717 0.34064993 2.1787457
000290 b9 7d a6 3e eb 77 ff bf 9e 01 2f c0 d9 85 18 c0
       0.32517794 -1.9958471 -2.7344737 -2.3831694
0002a0 b0 21 90 bf a0 39 b2 3f 97 f8 86 bf 7d 21 43 bf
       -1.1260281 1.3923836 -1.0544614 -0.76222974
0002b0 ca 05 6d 3f 94 b9 2a bf 52 b7 12 bf ac f6 c1 3f
       0.9258696 -0.6668942 -0.57310975 1.5153403
0002c0 2c 4f 00 c0 7a c6 0a 40 43 52 08 40 29 32 03 c0
       -2.0048323 2.168364 2.1300209 -2.0499365
0002d0 0d 47 d9 3f d6 3c 58 c0 43 70 ac bf 54 69 3e c0
       1.6974808 -3.3787131 -1.347176 -2.9751787
0002e0 d5 fa 57 bc a9 6a 1b c0 91 19 a0 3f 37 55 2a 3f
       -0.013182362 -2.428385 1.2507802 0.6653628
0002f0 2c f0 00 40 48 84 90 3f 2f 90 95 bf 6d 03 3a 40
       2.014659 1.1290369 -1.1684626 2.906459
000300 7b 25 3e 3f 6e 7c cc 3f c0 c6 6c 3c b5 b9 04 be
       0.7427594 1.5975473 0.014451683 -0.12961467
000310 0f ac 4c 3f 58 2b af 3f 89 df 7e 3f 4e eb 1d 3f
       0.7995004 1.3685102 0.9955984 0.6168717
000320 25 cb f3 bf 71 b1 32 40 3c 36 13 c0 e1 5f 9b bf
       -1.904637 2.7920802 -2.3001852 -1.2138635
000330 b4 43 13 3f ff 45 bc bf 5d c8 fc 3e af 16 1f 3e
       0.5752518 -1.4708861 0.49371615 0.15535997
000340 44 2e c7 bf d2 25 aa be 50 a9 c9 3f 6d 39 d4 3e
       -1.5560994 -0.3323198 1.5754795 0.41450062
000350 59 00 f6 be 2d 18 4b be 49 80 e4 3e 83 3a 30 3f
       -0.4804714 -0.19833441 0.44629124 0.6883928
000360 ef af a4 3e e2 14 7e bf 35 09 91 3f 75 72 fa 3f
       0.32165477 -0.99250615 1.1330935 1.956618
000370 bc 0b ce 3e 9c 30 84 3f 5b ca 3f 3f b4 e6 a0 3e
       0.40243328 1.0327334 0.74918145 0.31426013
000380 e6 f5 b4 bf 51 b2 7f be 65 ac 5b bf 12 ad f9 bf
       -1.4137542 -0.24970366 -0.8580993 -1.9505942
000390 56 67 a6 3e 6b 18 9a bf cb 72 ea 3f 74 e4 80 3d
       0.32500714 -1.2038702 1.8316282 0.06293574
0003a0 4c 9f 0d 3f 32 02 3d 40 74 9b c3 bf 79 7f 54 40
       0.5532119 2.953259 -1.5281816 3.3202803
0003b0 94 b4 26 3f c6 ba 12 c0 06 b5 81 bf e4 2e 22 c0
       0.6511929 -2.2926497 -1.0133369 -2.534112
0003c0 be 13 4b 3f 6e 2f 98 bf 4b ae 13 c0 b0 91 27 be
       0.79327 -1.1889474 -2.307513 -0.16364169
0003d0 d2 c7 c0 bf 59 dd e7 bf 9b 36 de 3f da f9 b7 bf
       -1.506098 -1.8114425 1.7360414 -1.4373124
0003e0 71 c8 49 3f 95 51 f9 be 08 1a 87 3f 9f ca 97 bf
       0.78821474 -0.48695055 1.0554819 -1.185871
0003f0 50 4a e7 bf bc cc 38 3f c6 65 77 3f 89 8e e5 3f
       -1.8069553 0.721874 0.9663967 1.7934123
